10-基于视觉的机械臂应用/facetrack/face_detection_yunet_2021dec-quantized.onnx (onnx, 120297 bytes, 43 tensors)

331_quantized i1 [16, 3, 3, 3]
0	0x00	0
1	0x0d	13
2	0x09	9
3	0x25	37
4	0xf6	-10
5	0xe3	-29
6	0x19	25
7	0xfb	-5
8	0xe3	-29
9	0x0d	13
10	0xe5	-27
11	0xce	-50
12	0x55	85
13	0xe2	-30
14	0xbb	-69
15	0x7c	124
16	0x0e	14
17	0xdc	-36
18	0x19	25
19	0xfe	-2
20	0x05	5
21	0x23	35
22	0xcd	-51
23	0xd3	-45
24	0x2c	44
25	0xec	-20
26	0xf3	-13
27	0x00	0
28	0x01	1
29	0x09	9
30	0x03	3
31	0xe8	-24
32	0xfb	-5
33	0xfc	-4
34	0x03	3
35	0xfd	-3
36	0xf9	-7
37	0xe7	-25
38	0xfc	-4
39	0xf6	-10
40	0xc7	-57
41	0xe7	-25
42	0xf1	-15
43	0xee	-18
44	0xed	-19
45	0xfb	-5
46	0xfa	-6
47	0xfd	-3
48	0x05	5
49	0xf2	-14
50	0xff	-1
51	0x01	1
52	0x1d	29
53	0x12	18
54	0x06	6
55	0xff	-1
56	0x0c	12
57	0xfc	-4
58	0xf5	-11
59	0x02	2
60	0x00	0
61	0xf8	-8
62	0x0b	11
63	0xea	-22
64	0xe7	-25
65	0xf1	-15
66	0xeb	-21
67	0xe5	-27
68	0xeb	-21
69	0xf2	-14
70	0xe6	-26
71	0xef	-17
72	0x09	9
73	0x1d	29
74	0x03	3
75	0x1f	31
76	0x30	48
77	0x19	25
78	0x0c	12
79	0x11	17
80	0x04	4
81	0x07	7
82	0x21	33
83	0x09	9
84	0xfd	-3
85	0xcc	-52
86	0xf9	-7
87	0xff	-1
88	0x05	5
89	0x13	19
90	0x15	21
91	0x49	73
92	0x2c	44
93	0xdb	-37
94	0x9c	-100
95	0xd6	-42
96	0x05	5
97	0xee	-18
98	0x0e	14
99	0x27	39
100	0x5d	93
101	0x33	51
102	0xf3	-13
103	0xba	-70
104	0xdd	-35
105	0xf7	-9
106	0xf5	-11
107	0xf7	-9
108	0xfe	-2
109	0x07	7
110	0xff	-1
111	0xf8	-8
112	0xfd	-3
113	0x00	0
114	0x0b	11
115	0xfd	-3
116	0x01	1
117	0xde	-34
118	0xe6	-26
119	0xf7	-9
120	0xd7	-41
121	0xde	-34
122	0xfe	-2
123	0xf7	-9
124	0xf2	-14
125	0x09	9
126	0x07	7
127	0x08	8
128	0x06	6
129	0xfe	-2
130	0xfd	-3
131	0x05	5
132	0xf8	-8
133	0xeb	-21
134	0xf8	-8
135	0xfe	-2
136	0x00	0
137	0xff	-1
138	0x01	1
139	0x03	3
140	0x03	3
141	0x0d	13
142	0xfe	-2
143	0x08	8
144	0x09	9
145	0x13	19
146	0x0b	11
147	0x08	8
148	0x11	17
149	0x08	8
150	0x0c	12
151	0x01	1
152	0x04	4
153	0xfa	-6
154	0x0b	11
155	0xfe	-2
156	0x0a	10
157	0x17	23
158	0x08	8
159	0xf7	-9
160	0xee	-18
161	0xed	-19
162	0xec	-20
163	0x0e	14
164	0xef	-17
165	0xfc	-4
166	0x17	23
167	0xf2	-14
168	0xf7	-9
169	0xfc	-4
170	0xef	-17
171	0x03	3
172	0x28	40
173	0x11	17
174	0xfe	-2
175	0x1e	30
176	0x07	7
177	0xfa	-6
178	0xff	-1
179	0x04	4
180	0x0d	13
181	0x09	9
182	0x13	19
183	0xfa	-6
184	0xf3	-13
185	0xff	-1
186	0x1a	26
187	0x02	2
188	0x27	39
189	0xf2	-14
190	0x02	2
191	0xf2	-14
192	0x08	8
193	0x14	20
194	0x07	7
195	0x0b	11
196	0x08	8
197	0x08	8
198	0x0f	15
199	0x1e	30
200	0x11	17
201	0x14	20
202	0x1f	31
203	0x17	23
204	0x13	19
205	0x0f	15
206	0x14	20
207	0xf3	-13
208	0xf0	-16
209	0xef	-17
210	0xe7	-25
211	0xe3	-29
212	0xe8	-24
213	0xe6	-26
214	0xd8	-40
215	0xe9	-23
216	0xf6	-10
217	0xed	-19
218	0x03	3
219	0xe8	-24
220	0xe6	-26
221	0x1f	31
222	0x1d	29
223	0x07	7
224	0x0a	10
225	0xff	-1
226	0xea	-22
227	0x24	36
228	0xce	-50
229	0xce	-50
230	0x3b	59
231	0x07	7
232	0xee	-18
233	0x0e	14
234	0x01	1
235	0xe4	-28
236	0x1c	28
237	0xdc	-36
238	0xd5	-43
239	0x3e	62
240	0x10	16
241	0xf6	-10
242	0x22	34
243	0xfd	-3
244	0xf3	-13
245	0xf4	-12
246	0x1d	29
247	0xe9	-23
248	0x0f	15
249	0x04	4
250	0xfa	-6
251	0x09	9
252	0x0f	15
253	0xc0	-64
254	0xe5	-27
255	0x3c	60

model0.conv2.conv1.weight_quantized i1 [16, 16, 1, 1]
0	0x21	33
1	0xdd	-35
2	0x01	1
3	0xf4	-12
4	0xf6	-10
5	0x1a	26
6	0x02	2
7	0xff	-1
8	0x00	0
9	0xbf	-65
10	0x03	3
11	0xef	-17
12	0xe4	-28
13	0x23	35
14	0x09	9
15	0xfe	-2
16	0x05	5
17	0xfe	-2
18	0x12	18
19	0xdf	-33
20	0xd4	-44
21	0xd4	-44
22	0x05	5
23	0xf3	-13
24	0xf4	-12
25	0xf4	-12
26	0xfc	-4
27	0x33	51
28	0xf5	-11
29	0xca	-54
30	0x13	19
31	0x09	9
32	0x02	2
33	0xca	-54
34	0x05	5
35	0xfb	-5
36	0xba	-70
37	0x1f	31
38	0xfb	-5
39	0xfc	-4
40	0xdd	-35
41	0xd3	-45
42	0xfc	-4
43	0xf7	-9
44	0x13	19
45	0x17	23
46	0x07	7
47	0xfd	-3
48	0x00	0
49	0x3b	59
50	0x27	39
51	0x0f	15
52	0x1b	27
53	0xf8	-8
54	0x27	39
55	0x67	103
56	0x0c	12
57	0x13	19
58	0xfb	-5
59	0x08	8
60	0x03	3
61	0x17	23
62	0x4a	74
63	0x48	72
64	0x10	16
65	0x03	3
66	0x10	16
67	0x22	34
68	0x1c	28
69	0x03	3
70	0x1e	30
71	0x09	9
72	0x29	41
73	0xe3	-29
74	0xe2	-30
75	0x26	38
76	0xe7	-25
77	0xec	-20
78	0xfd	-3
79	0xf5	-11
80	0x3f	63
81	0xd0	-48
82	0x02	2
83	0x2a	42
84	0xe2	-30
85	0x32	50
86	0x03	3
87	0x08	8
88	0x0a	10
89	0xfa	-6
90	0xc5	-59
91	0x3a	58
92	0xa5	-91
93	0x13	19
94	0x0c	12
95	0x08	8
96	0xf8	-8
97	0xf2	-14
98	0xe9	-23
99	0x17	23
100	0xf5	-11
101	0x01	1
102	0xf3	-13
103	0x10	16
104	0xd3	-45
105	0x25	37
106	0xed	-19
107	0x2e	46
108	0x38	56
109	0x1f	31
110	0x02	2
111	0x06	6
112	0x3f	63
113	0xff	-1
114	0x07	7
115	0x2d	45
116	0x0a	10
117	0x04	4
118	0x13	19
119	0xf5	-11
120	0x05	5
121	0xd8	-40
122	0xd2	-46
123	0x31	49
124	0xc1	-63
125	0xf1	-15
126	0xf7	-9
127	0xf6	-10
128	0x13	19
129	0xf6	-10
130	0xfb	-5
131	0x35	53
132	0xfe	-2
133	0xfa	-6
134	0x02	2
135	0x0b	11
136	0x00	0
137	0xf1	-15
138	0xb8	-72
139	0x38	56
140	0xfd	-3
141	0xf8	-8
142	0x01	1
143	0x02	2
144	0xdf	-33
145	0xef	-17
146	0xf8	-8
147	0x28	40
148	0xe0	-32
149	0x07	7
150	0xff	-1
151	0x01	1
152	0xeb	-21
153	0x12	18
154	0xc4	-60
155	0x34	52
156	0x21	33
157	0xfb	-5
158	0xfd	-3
159	0xff	-1
160	0xd6	-42
161	0xb8	-72
162	0x1f	31
163	0x00	0
164	0xdc	-36
165	0x58	88
166	0x14	20
167	0xef	-17
168	0xf0	-16
169	0x1b	27
170	0xff	-1
171	0xf5	-11
172	0x21	33
173	0x14	20
174	0x01	1
175	0x07	7
176	0xf7	-9
177	0xb7	-73
178	0x30	48
179	0x03	3
180	0xb9	-71
181	0x53	83
182	0x1a	26
183	0xe4	-28
184	0xfc	-4
185	0x02	2
186	0x02	2
187	0xf5	-11
188	0xf9	-7
189	0xf8	-8
190	0x03	3
191	0x01	1
192	0xff	-1
193	0xe1	-31
194	0xdb	-37
195	0xf5	-11
196	0xfd	-3
197	0x06	6
198	0xae	-82
199	0xed	-19
200	0xfc	-4
201	0xf2	-14
202	0x0e	14
203	0x01	1
204	0x06	6
205	0xf9	-7
206	0xa3	-93
207	0x1f	31
208	0xf9	-7
209	0xd5	-43
210	0x81	-127
211	0x03	3
212	0xfb	-5
213	0x0c	12
214	0xea	-22
215	0x20	32
216	0x00	0
217	0x04	4
218	0xfe	-2
219	0x02	2
220	0xfb	-5
221	0xf7	-9
222	0x1d	29
223	0xe6	-26
224	0xdd	-35
225	0x0e	14
226	0x0a	10
227	0x3b	59
228	0xfc	-4
229	0xf3	-13
230	0x1a	26
231	0x02	2
232	0xb6	-74
233	0xfc	-4
234	0xd3	-45
235	0x39	57
236	0x32	50
237	0xe4	-28
238	0xfa	-6
239	0xfa	-6
240	0x06	6
241	0x09	9
242	0xef	-17
243	0x4c	76
244	0xfc	-4
245	0x06	6
246	0xf6	-10
247	0x0a	10
248	0x01	1
249	0xf4	-12
250	0xf1	-15
251	0x04	4
252	0x0a	10
253	0x18	24
254	0xf8	-8
255	0x09	9

334_quantized i1 [16, 1, 3, 3]
0	0xf1	-15
1	0xdd	-35
2	0x2a	42
3	0x01	1
4	0xb2	-78
5	0x6c	108
6	0xf4	-12
7	0xe7	-25
8	0x0a	10
9	0x0d	13
10	0x52	82
11	0x32	50
12	0xe5	-27
13	0xab	-85
14	0xcf	-49
15	0x03	3
16	0x02	2
17	0x02	2
18	0x06	6
19	0x2a	42
20	0xc6	-58
21	0xee	-18
22	0x7c	124
23	0x8e	-114
24	0x0e	14
25	0x0c	12
26	0xf1	-15
27	0x02	2
28	0x24	36
29	0x08	8
30	0x06	6
31	0x19	25
32	0x19	25
33	0x05	5
34	0xfb	-5
35	0x01	1
36	0x16	22
37	0xdf	-33
38	0xf3	-13
39	0xf3	-13
40	0x7f	127
41	0x9a	-102
42	0x00	0
43	0x16	22
44	0x01	1
45	0xfc	-4
46	0xf2	-14
47	0xff	-1
48	0xfb	-5
49	0xed	-19
50	0xe4	-28
51	0xfb	-5
52	0xf8	-8
53	0xee	-18
54	0xfc	-4
55	0xe2	-30
56	0xfd	-3
57	0x0e	14
58	0x9a	-102
59	0x23	35
60	0xf5	-11
61	0xfb	-5
62	0x0f	15
63	0x13	19
64	0x00	0
65	0xf6	-10
66	0x02	2
67	0x4d	77
68	0x39	57
69	0xf0	-16
70	0xca	-54
71	0x0b	11
72	0xdc	-36
73	0xc6	-58
74	0xb9	-71
75	0xfd	-3
76	0x02	2
77	0xfb	-5
78	0x16	22
79	0x1c	28
80	0x19	25
81	0x14	20
82	0x2e	46
83	0x0c	12
84	0x2b	43
85	0x00	0
86	0xb6	-74
87	0xf5	-11
88	0xaf	-81
89	0xe8	-24
90	0xfd	-3
91	0x09	9
92	0x0d	13
93	0x04	4
94	0x14	20
95	0x11	17
96	0x01	1
97	0x09	9
98	0x08	8
99	0xd7	-41
100	0xae	-82
101	0xc2	-62
102	0xf1	-15
103	0x27	39
104	0x0b	11
105	0x22	34
106	0x3a	58
107	0x39	57
108	0x02	2
109	0x0f	15
110	0x04	4
111	0x0b	11
112	0x16	22
113	0x17	23
114	0x0c	12
115	0x09	9
116	0x09	9
117	0xf9	-7
118	0x24	36
119	0x0a	10
120	0x07	7
121	0x0d	13
122	0x14	20
123	0x01	1
124	0xf8	-8
125	0xfc	-4
126	0xfd	-3
127	0xe9	-23
128	0x13	19
129	0x04	4
130	0x54	84
131	0x0b	11
132	0x06	6
133	0xed	-19
134	0x01	1
135	0x0b	11
136	0x34	52
137	0x25	37
138	0xe6	-26
139	0xac	-84
140	0xc3	-61
141	0x02	2
142	0x07	7
143	0x09	9

model1.conv1.conv1.weight_quantized i1 [16, 16, 1, 1]
0	0xfc	-4
1	0x06	6
2	0xfd	-3
3	0xf8	-8
4	0x0d	13
5	0xdb	-37
6	0xfe	-2
7	0x25	37
8	0x23	35
9	0x07	7
10	0xde	-34
11	0xfe	-2
12	0x17	23
13	0x19	25
14	0x2e	46
15	0xf1	-15
16	0xfe	-2
17	0x04	4
18	0x01	1
19	0x0f	15
20	0x00	0
21	0xf1	-15
22	0xfb	-5
23	0xf5	-11
24	0x1d	29
25	0xe9	-23
26	0xf9	-7
27	0x0b	11
28	0xfe	-2
29	0x66	102
30	0x05	5
31	0x12	18
32	0xfd	-3
33	0x06	6
34	0xfc	-4
35	0x06	6
36	0x01	1
37	0x1b	27
38	0x04	4
39	0x03	3
40	0x0e	14
41	0xfc	-4
42	0x1f	31
43	0x7f	127
44	0x0a	10
45	0x0d	13
46	0xf7	-9
47	0x04	4
48	0x08	8
49	0x08	8
50	0x01	1
51	0xff	-1
52	0xfe	-2
53	0x18	24
54	0x01	1
55	0x0a	10
56	0xfe	-2
57	0x0e	14
58	0xa6	-90
59	0x0a	10
60	0xfa	-6
61	0x14	20
62	0x06	6
63	0x03	3
64	0xf8	-8
65	0x20	32
66	0xff	-1
67	0xfc	-4
68	0x08	8
69	0xfc	-4
70	0x00	0
71	0x19	25
72	0x25	37
73	0x11	17
74	0x1e	30
75	0x07	7
76	0xe1	-31
77	0xef	-17
78	0x16	22
79	0x1a	26
80	0xe8	-24
81	0xfd	-3
82	0xef	-17
83	0xfe	-2
84	0xfc	-4
85	0xd7	-41
86	0xfa	-6
87	0xf7	-9
88	0xf1	-15
89	0xe7	-25
90	0x3c	60
91	0xfa	-6
92	0xf4	-12
93	0xf7	-9
94	0xfa	-6
95	0xf6	-10
96	0xfd	-3
97	0x08	8
98	0xfe	-2
99	0x1f	31
100	0x04	4
101	0xee	-18
102	0x09	9
103	0x06	6
104	0x1a	26
105	0x06	6
106	0x23	35
107	0x20	32
108	0xf3	-13
109	0x27	39
110	0x09	9
111	0x0a	10
112	0x2d	45
113	0x32	50
114	0x27	39
115	0xf2	-14
116	0xf6	-10
117	0xdd	-35
118	0x34	52
119	0xeb	-21
120	0xf0	-16
121	0x25	37
122	0xed	-19
123	0xfe	-2
124	0xfa	-6
125	0xea	-22
126	0x38	56
127	0x25	37
128	0x01	1
129	0xfa	-6
130	0xff	-1
131	0x75	117
132	0x03	3
133	0xff	-1
134	0x00	0
135	0x03	3
136	0xe6	-26
137	0x0c	12
138	0x01	1
139	0xfe	-2
140	0x48	72
141	0x60	96
142	0xff	-1
143	0xf3	-13
144	0xf9	-7
145	0xfd	-3
146	0xd1	-47
147	0xf8	-8
148	0xec	-20
149	0xb9	-71
150	0x17	23
151	0x15	21
152	0x08	8
153	0x08	8
154	0xc1	-63
155	0x15	21
156	0xf8	-8
157	0xea	-22
158	0xd9	-39
159	0x00	0
160	0xeb	-21
161	0xe1	-31
162	0xf1	-15
163	0x02	2
164	0xa9	-87
165	0xe7	-25
166	0x2a	42
167	0xa6	-90
168	0xf9	-7
169	0x40	64
170	0xfb	-5
171	0x03	3
172	0x07	7
173	0x0c	12
174	0x46	70
175	0xe5	-27
176	0x03	3
177	0x01	1
178	0x01	1
179	0x01	1
180	0x03	3
181	0xfb	-5
182	0x0e	14
183	0x04	4
184	0x03	3
185	0xfb	-5
186	0x52	82
187	0xff	-1
188	0x0b	11
189	0x17	23
190	0x04	4
191	0xfe	-2
192	0x43	67
193	0xd6	-42
194	0x44	68
195	0x04	4
196	0x2d	45
197	0x19	25
198	0x46	70
199	0xee	-18
200	0xe3	-29
201	0x05	5
202	0x19	25
203	0xdd	-35
204	0x03	3
205	0x0e	14
206	0xf8	-8
207	0xdb	-37
208	0x04	4
209	0x07	7
210	0x08	8
211	0x04	4
212	0x0e	14
213	0x65	101
214	0xfa	-6
215	0x0b	11
216	0xfe	-2
217	0x08	8
218	0x2f	47
219	0x17	23
220	0xfc	-4
221	0x1b	27
222	0xfd	-3
223	0xfc	-4
224	0x01	1
225	0x03	3
226	0x01	1
227	0x2c	44
228	0x02	2
229	0xfa	-6
230	0x02	2
231	0x04	4
232	0xfe	-2
233	0xff	-1
234	0x21	33
235	0x01	1
236	0xa3	-93
237	0xd3	-45
238	0x07	7
239	0xff	-1
240	0x2e	46
241	0xbc	-68
242	0x28	40
243	0xf3	-13
244	0x0d	13
245	0x06	6
246	0x1f	31
247	0xe5	-27
248	0xd9	-39
249	0xea	-22
250	0x0e	14
251	0xe1	-31
252	0x00	0
253	0xfe	-2
254	0xed	-19
255	0xbf	-65

337_quantized i1 [16, 1, 3, 3]
0	0xf6	-10
1	0x02	2
2	0xfd	-3
3	0xfa	-6
4	0xb6	-74
5	0x06	6
6	0xff	-1
7	0x17	23
8	0xf9	-7
9	0xf4	-12
10	0x21	33
11	0xfb	-5
12	0x09	9
13	0xa7	-89
14	0x0a	10
15	0x04	4
16	0xee	-18
17	0x03	3
18	0xfd	-3
19	0x04	4
20	0xf9	-7
21	0x01	1
22	0x8f	-113
23	0x03	3
24	0xf8	-8
25	0x02	2
26	0xfb	-5
27	0x13	19
28	0xfa	-6
29	0xe1	-31
30	0x26	38
31	0x54	84
32	0xbe	-66
33	0x05	5
34	0xfc	-4
35	0xe8	-24
36	0xdf	-33
37	0x05	5
38	0x11	17
39	0xd2	-46
40	0x04	4
41	0x27	39
42	0xeb	-21
43	0x06	6
44	0x1f	31
45	0x0f	15
46	0x33	51
47	0x05	5
48	0xfd	-3
49	0x24	36
50	0xf8	-8
51	0xef	-17
52	0xc3	-61
53	0xf8	-8
54	0x03	3
55	0xdd	-35
56	0xfd	-3
57	0x0b	11
58	0x92	-110
59	0x17	23
60	0x0b	11
61	0x5a	90
62	0xf2	-14
63	0x01	1
64	0x06	6
65	0x04	4
66	0xfa	-6
67	0x3e	62
68	0xf8	-8
69	0x02	2
70	0x00	0
71	0x02	2
72	0xfc	-4
73	0x0b	11
74	0xfc	-4
75	0x11	17
76	0xa0	-96
77	0x12	18
78	0x00	0
79	0xfb	-5
80	0x02	2
81	0x03	3
82	0x0a	10
83	0xfd	-3
84	0xf7	-9
85	0x7f	127
86	0x01	1
87	0xfd	-3
88	0x06	6
89	0x01	1
90	0xfb	-5
91	0xf7	-9
92	0xfb	-5
93	0xfb	-5
94	0xcc	-52
95	0x00	0
96	0xff	-1
97	0xfa	-6
98	0xfd	-3
99	0xf2	-14
100	0xae	-82
101	0xff	-1
102	0xc2	-62
103	0x34	52
104	0xfe	-2
105	0x0d	13
106	0x5f	95
107	0x02	2
108	0xfe	-2
109	0xf5	-11
110	0xfe	-2
111	0xfb	-5
112	0xbb	-69
113	0xfd	-3
114	0xff	-1
115	0xff	-1
116	0xfd	-3
117	0x06	6
118	0xf1	-15
119	0x07	7
120	0xea	-22
121	0x70	112
122	0xf1	-15
123	0x06	6
124	0xfb	-5
125	0x06	6
126	0x00	0
127	0xbd	-67
128	0x0e	14
129	0xe5	-27
130	0xd9	-39
131	0xf2	-14
132	0x12	18
133	0x64	100
134	0x08	8
135	0x02	2
136	0x03	3
137	0x01	1
138	0xfe	-2
139	0x40	64
140	0xfc	-4
141	0x05	5
142	0x09	9
143	0x05	5

model1.conv2.conv1.weight_quantized i1 [64, 16, 1, 1]
0	0x04	4
1	0xf7	-9
2	0xf7	-9
3	0xe4	-28
4	0xfb	-5
5	0x04	4
6	0x10	16
7	0x18	24
8	0x0f	15
9	0xfe	-2
10	0xd0	-48
11	0xf4	-12
12	0x32	50
13	0xee	-18
14	0x00	0
15	0xf7	-9
16	0x0f	15
17	0xf5	-11
18	0xf0	-16
19	0xf6	-10
20	0xfe	-2
21	0xea	-22
22	0x0d	13
23	0xef	-17
24	0x0a	10
25	0xf9	-7
26	0xf7	-9
27	0xfe	-2
28	0xf2	-14
29	0x40	64
30	0x07	7
31	0x09	9
32	0x08	8
33	0x01	1
34	0xd9	-39
35	0x16	22
36	0x04	4
37	0xe1	-31
38	0x0b	11
39	0x0d	13
40	0xf1	-15
41	0x36	54
42	0xf9	-7
43	0x07	7
44	0xec	-20
45	0xf5	-11
46	0xff	-1
47	0x15	21
48	0xfd	-3
49	0x0e	14
50	0xff	-1
51	0xf5	-11
52	0x11	17
53	0x06	6
54	0xe2	-30
55	0x0c	12
56	0x00	0
57	0x0f	15
58	0xcc	-52
59	0x1d	29
60	0xe4	-28
61	0x04	4
62	0x05	5
63	0x14	20
64	0x0b	11
65	0xfe	-2
66	0xcf	-49
67	0x24	36
68	0xfa	-6
69	0xe4	-28
70	0xfb	-5
71	0xea	-22
72	0x1a	26
73	0x18	24
74	0x13	19
75	0x1e	30
76	0x13	19
77	0xc8	-56
78	0xff	-1
79	0xd5	-43
80	0x03	3
81	0x41	65
82	0xfc	-4
83	0xfe	-2
84	0x05	5
85	0x05	5
86	0x0c	12
87	0x01	1
88	0x50	80
89	0xfd	-3
90	0x04	4
91	0x02	2
92	0x01	1
93	0xe9	-23
94	0xf7	-9
95	0xf4	-12
96	0xfe	-2
97	0xf3	-13
98	0x04	4
99	0x07	7
100	0xf2	-14
101	0xe2	-30
102	0xec	-20
103	0x02	2
104	0xe0	-32
105	0x19	25
106	0xd3	-45
107	0xfc	-4
108	0xe2	-30
109	0x13	19
110	0x11	17
111	0x1f	31
112	0xf3	-13
113	0x07	7
114	0x17	23
115	0x07	7
116	0x07	7
117	0x09	9
118	0xfa	-6
119	0x16	22
120	0x07	7
121	0xf9	-7
122	0x9f	-97
123	0x17	23
124	0x07	7
125	0xfe	-2
126	0x00	0
127	0x05	5
128	0x03	3
129	0x10	16
130	0x27	39
131	0xf6	-10
132	0xe6	-26
133	0x06	6
134	0x1e	30
135	0x20	32
136	0xf8	-8
137	0xfe	-2
138	0xfe	-2
139	0xf9	-7
140	0xcb	-53
141	0xdf	-33
142	0xf0	-16
143	0x00	0
144	0xff	-1
145	0x24	36
146	0xf3	-13
147	0xff	-1
148	0xfb	-5
149	0x1e	30
150	0x12	18
151	0xe0	-32
152	0x11	17
153	0x09	9
154	0xec	-20
155	0x1d	29
156	0xe2	-30
157	0x05	5
158	0x05	5
159	0x22	34
160	0x06	6
161	0xfe	-2
162	0xdc	-36
163	0x2f	47
164	0x01	1
165	0xec	-20
166	0xe5	-27
167	0x14	20
168	0xff	-1
169	0x31	49
170	0x00	0
171	0x52	82
172	0xf5	-11
173	0xe1	-31
174	0x0d	13
175	0x07	7
176	0x06	6
177	0xfc	-4
178	0xf0	-16
179	0xee	-18
180	0xfe	-2
181	0x08	8
182	0x2d	45
183	0xf8	-8
184	0x0d	13
185	0xfc	-4
186	0xf6	-10
187	0x65	101
188	0xfe	-2
189	0x0f	15
190	0x09	9
191	0xf2	-14
192	0x00	0
193	0x0d	13
194	0xec	-20
195	0xf7	-9
196	0xf2	-14
197	0xf5	-11
198	0x37	55
199	0x06	6
200	0xfe	-2
201	0xf5	-11
202	0xf3	-13
203	0xe2	-30
204	0xf2	-14
205	0x06	6
206	0xf2	-14
207	0x0d	13
208	0xeb	-21
209	0xc8	-56
210	0x04	4
211	0x03	3
212	0x01	1
213	0x1a	26
214	0x00	0
215	0x28	40
216	0xe2	-30
217	0xf9	-7
218	0x0f	15
219	0x06	6
220	0xf0	-16
221	0x12	18
222	0x05	5
223	0xd4	-44
224	0xfe	-2
225	0x19	25
226	0x04	4
227	0x0d	13
228	0x11	17
229	0xf9	-7
230	0xe9	-23
231	0xbf	-65
232	0x0d	13
233	0x33	51
234	0xe3	-29
235	0x05	5
236	0x10	16
237	0x0d	13
238	0x0a	10
239	0x27	39
240	0xf7	-9
241	0x0d	13
242	0xf7	-9
243	0x00	0
244	0x0a	10
245	0xf3	-13
246	0xd4	-44
247	0x00	0
248	0x0a	10
249	0x0b	11
250	0xbe	-66
251	0x1f	31
252	0x0b	11
253	0xf3	-13
254	0x10	16
255	0x01	1

340_quantized i1 [64, 1, 3, 3]
0	0x1f	31
1	0xd8	-40
2	0xff	-1
3	0x2c	44
4	0x05	5
5	0xc4	-60
6	0x0e	14
7	0x18	24
8	0x08	8
9	0x0c	12
10	0x06	6
11	0xd5	-43
12	0xda	-38
13	0x6a	106
14	0xff	-1
15	0xe9	-23
16	0x05	5
17	0x0f	15
18	0xd9	-39
19	0xfd	-3
20	0x26	38
21	0xc1	-63
22	0x5f	95
23	0xef	-17
24	0x09	9
25	0x12	18
26	0x01	1
27	0x15	21
28	0x24	36
29	0xd2	-46
30	0x38	56
31	0x0a	10
32	0xd2	-46
33	0xf6	-10
34	0xd6	-42
35	0x17	23
36	0xfc	-4
37	0x17	23
38	0x09	9
39	0xf4	-12
40	0x28	40
41	0xfe	-2
42	0x14	20
43	0xf9	-7
44	0xfc	-4
45	0x2e	46
46	0x27	39
47	0xf5	-11
48	0x30	48
49	0xf0	-16
50	0xe3	-29
51	0xf6	-10
52	0xc2	-62
53	0xee	-18
54	0xf1	-15
55	0xf6	-10
56	0x09	9
57	0xf7	-9
58	0x0b	11
59	0xf0	-16
60	0xf6	-10
61	0x22	34
62	0xd0	-48
63	0x09	9
64	0x33	51
65	0x0c	12
66	0x0c	12
67	0x0d	13
68	0x02	2
69	0xf5	-11
70	0xf8	-8
71	0x03	3
72	0x00	0
73	0xfe	-2
74	0xfe	-2
75	0x1b	27
76	0xf2	-14
77	0xe8	-24
78	0x05	5
79	0x39	57
80	0x0f	15
81	0x00	0
82	0x24	36
83	0xf8	-8
84	0xeb	-21
85	0x15	21
86	0xe4	-28
87	0x02	2
88	0xc3	-61
89	0x06	6
90	0xfe	-2
91	0xe9	-23
92	0xfc	-4
93	0xf7	-9
94	0xd6	-42
95	0x01	1
96	0xf0	-16
97	0x02	2
98	0xff	-1
99	0x02	2
100	0x0a	10
101	0x05	5
102	0x02	2
103	0x35	53
104	0x0a	10
105	0x01	1
106	0xfa	-6
107	0x05	5
108	0xfc	-4
109	0xc8	-56
110	0x6e	110
111	0xf3	-13
112	0xe5	-27
113	0x23	35
114	0xff	-1
115	0xf9	-7
116	0x05	5
117	0x0d	13
118	0xf4	-12
119	0xfd	-3
120	0xf7	-9
121	0x88	-120
122	0xfa	-6
123	0x23	35
124	0x26	38
125	0x25	37
126	0x13	19
127	0x44	68
128	0x02	2
129	0x1a	26
130	0xd5	-43
131	0xd6	-42
132	0x09	9
133	0x02	2
134	0x04	4
135	0xc3	-61
136	0xf3	-13
137	0x08	8
138	0x59	89
139	0x27	39
140	0xf0	-16
141	0x29	41
142	0xe3	-29
143	0x04	4
144	0xf6	-10
145	0xea	-22
146	0x0a	10
147	0x0d	13
148	0xd0	-48
149	0xff	-1
150	0xfb	-5
151	0x06	6
152	0xea	-22
153	0xf7	-9
154	0x0b	11
155	0x1b	27
156	0xf7	-9
157	0xef	-17
158	0xf3	-13
159	0x3b	59
160	0x12	18
161	0xeb	-21
162	0x04	4
163	0xf9	-7
164	0xf4	-12
165	0xed	-19
166	0x28	40
167	0xf2	-14
168	0xf8	-8
169	0xc5	-59
170	0xeb	-21
171	0xeb	-21
172	0xfc	-4
173	0xfc	-4
174	0xe7	-25
175	0x0f	15
176	0xfc	-4
177	0xf2	-14
178	0xdb	-37
179	0xe1	-31
180	0xe8	-24
181	0x4f	79
182	0xf3	-13
183	0xbb	-69
184	0x5e	94
185	0xa9	-87
186	0x13	19
187	0xf4	-12
188	0x05	5
189	0xd5	-43
190	0x24	36
191	0x24	36
192	0xf8	-8
193	0x02	2
194	0x18	24
195	0xea	-22
196	0x06	6
197	0x01	1
198	0xf4	-12
199	0xf8	-8
200	0x0a	10
201	0x3a	58
202	0x1f	31
203	0x08	8
204	0x19	25
205	0xee	-18
206	0x02	2
207	0x0e	14
208	0x32	50
209	0x14	20
210	0x0e	14
211	0xeb	-21
212	0x06	6
213	0xf9	-7
214	0xfe	-2
215	0xf3	-13
216	0xd5	-43
217	0x0a	10
218	0x09	9
219	0xbb	-69
220	0x38	56
221	0x05	5
222	0xca	-54
223	0x3c	60
224	0xff	-1
225	0x2a	42
226	0x46	70
227	0x12	18
228	0xf9	-7
229	0x86	-122
230	0x1c	28
231	0xf6	-10
232	0xf7	-9
233	0xfa	-6
234	0xfa	-6
235	0x11	17
236	0x19	25
237	0x05	5
238	0xba	-70
239	0xe2	-30
240	0xfe	-2
241	0xfd	-3
242	0xf6	-10
243	0xbd	-67
244	0xe5	-27
245	0x06	6
246	0xe5	-27
247	0x1d	29
248	0x06	6
249	0x16	22
250	0x24	36
251	0x06	6
252	0xed	-19
253	0x09	9
254	0x04	4
255	0xca	-54

model2.conv1.conv1.weight_quantized i1 [64, 64, 1, 1]
0	0xda	-38
1	0x0e	14
2	0xed	-19
3	0xf1	-15
4	0x08	8
5	0x02	2
6	0x0a	10
7	0x17	23
8	0x26	38
9	0xe3	-29
10	0x21	33
11	0x01	1
12	0x02	2
13	0x04	4
14	0xfe	-2
15	0xe1	-31
16	0xd3	-45
17	0xf2	-14
18	0x17	23
19	0xdb	-37
20	0xf2	-14
21	0x15	21
22	0x11	17
23	0xde	-34
24	0x0e	14
25	0x12	18
26	0x00	0
27	0x17	23
28	0x12	18
29	0x4f	79
30	0xf7	-9
31	0x16	22
32	0xf8	-8
33	0xf0	-16
34	0x10	16
35	0x0c	12
36	0x03	3
37	0x0b	11
38	0x15	21
39	0x13	19
40	0x07	7
41	0xf4	-12
42	0xfe	-2
43	0x26	38
44	0x0d	13
45	0x04	4
46	0xec	-20
47	0xdc	-36
48	0x0a	10
49	0xfc	-4
50	0x03	3
51	0xfe	-2
52	0x19	25
53	0x04	4
54	0x44	68
55	0x11	17
56	0xf8	-8
57	0x0c	12
58	0xf6	-10
59	0x05	5
60	0xfd	-3
61	0xe9	-23
62	0x03	3
63	0x0a	10
64	0xf0	-16
65	0x09	9
66	0xf8	-8
67	0x21	33
68	0xcd	-51
69	0xd8	-40
70	0xff	-1
71	0xfc	-4
72	0xf2	-14
73	0x09	9
74	0x00	0
75	0x06	6
76	0xdb	-37
77	0x07	7
78	0x0e	14
79	0x1f	31
80	0x09	9
81	0xcb	-53
82	0x06	6
83	0xdd	-35
84	0xf8	-8
85	0x0a	10
86	0xef	-17
87	0x0b	11
88	0xf5	-11
89	0x2a	42
90	0xfb	-5
91	0x49	73
92	0xe0	-32
93	0xfd	-3
94	0x04	4
95	0x19	25
96	0xec	-20
97	0x45	69
98	0xe2	-30
99	0x14	20
100	0x02	2
101	0x10	16
102	0x02	2
103	0xff	-1
104	0x2d	45
105	0x09	9
106	0xe2	-30
107	0x29	41
108	0xed	-19
109	0x3c	60
110	0xec	-20
111	0xf3	-13
112	0x07	7
113	0x41	65
114	0xff	-1
115	0x3a	58
116	0xeb	-21
117	0xf9	-7
118	0xfb	-5
119	0x1d	29
120	0x15	21
121	0x19	25
122	0x17	23
123	0x15	21
124	0xf9	-7
125	0x05	5
126	0x27	39
127	0xcb	-53
128	0xfa	-6
129	0xfb	-5
130	0x0e	14
131	0x04	4
132	0x15	21
133	0x30	48
134	0xeb	-21
135	0xed	-19
136	0xd7	-41
137	0xe1	-31
138	0x44	68
139	0x4c	76
140	0x09	9
141	0x04	4
142	0x19	25
143	0xf8	-8
144	0xfa	-6
145	0xe2	-30
146	0xfa	-6
147	0x1e	30
148	0xe5	-27
149	0x15	21
150	0xf5	-11
151	0x15	21
152	0x04	4
153	0xfd	-3
154	0xfb	-5
155	0x0c	12
156	0x29	41
157	0x3c	60
158	0xf5	-11
159	0x24	36
160	0x0b	11
161	0x4f	79
162	0xee	-18
163	0x02	2
164	0x14	20
165	0x06	6
166	0xfa	-6
167	0xf9	-7
168	0xfa	-6
169	0x14	20
170	0x15	21
171	0xfd	-3
172	0xf6	-10
173	0x1d	29
174	0xee	-18
175	0xeb	-21
176	0xf1	-15
177	0xfa	-6
178	0x1b	27
179	0x13	19
180	0xfa	-6
181	0x0b	11
182	0xf0	-16
183	0xf1	-15
184	0x01	1
185	0xff	-1
186	0x00	0
187	0x4f	79
188	0x02	2
189	0xf9	-7
190	0xee	-18
191	0x3c	60
192	0x10	16
193	0x0e	14
194	0xee	-18
195	0xf0	-16
196	0xdc	-36
197	0xd0	-48
198	0x01	1
199	0xc2	-62
200	0x14	20
201	0xe7	-25
202	0xd2	-46
203	0xe2	-30
204	0x1b	27
205	0x0b	11
206	0xfb	-5
207	0xf9	-7
208	0xff	-1
209	0x0a	10
210	0xe4	-28
211	0xf6	-10
212	0xff	-1
213	0x17	23
214	0x00	0
215	0xf2	-14
216	0x10	16
217	0xf5	-11
218	0x0d	13
219	0xe6	-26
220	0x19	25
221	0x22	34
222	0xda	-38
223	0x41	65
224	0xe8	-24
225	0xdc	-36
226	0x0b	11
227	0x20	32
228	0x26	38
229	0xe6	-26
230	0x03	3
231	0xf2	-14
232	0xd9	-39
233	0x18	24
234	0xef	-17
235	0xf3	-13
236	0xd6	-42
237	0xf4	-12
238	0xf3	-13
239	0x16	22
240	0xe8	-24
241	0xfe	-2
242	0x02	2
243	0xe5	-27
244	0x03	3
245	0x17	23
246	0x3c	60
247	0xeb	-21
248	0x0d	13
249	0xe1	-31
250	0xf6	-10
251	0xe9	-23
252	0x02	2
253	0x2d	45
254	0xff	-1
255	0xef	-17

343_quantized i1 [64, 1, 3, 3]
0	0xd4	-44
1	0xed	-19
2	0x1e	30
3	0x6e	110
4	0x9f	-97
5	0xf9	-7
6	0xf7	-9
7	0xe0	-32
8	0xf2	-14
9	0xfb	-5
10	0xd9	-39
11	0xda	-38
12	0xfd	-3
13	0xfc	-4
14	0xf2	-14
15	0xfd	-3
16	0xfe	-2
17	0xf3	-13
18	0x02	2
19	0xbe	-66
20	0x08	8
21	0xee	-18
22	0xcc	-52
23	0xfe	-2
24	0x06	6
25	0x12	18
26	0x13	19
27	0x4b	75
28	0x34	52
29	0xe8	-24
30	0x17	23
31	0xf5	-11
32	0xf5	-11
33	0x04	4
34	0xf9	-7
35	0x01	1
36	0xb5	-75
37	0x0e	14
38	0x1b	27
39	0xda	-38
40	0x4c	76
41	0x0d	13
42	0x03	3
43	0x04	4
44	0xf3	-13
45	0x06	6
46	0x0e	14
47	0x0b	11
48	0x29	41
49	0x0e	14
50	0x00	0
51	0x26	38
52	0x1b	27
53	0x0d	13
54	0xf3	-13
55	0x05	5
56	0xf2	-14
57	0xf5	-11
58	0xcd	-51
59	0xf3	-13
60	0xe4	-28
61	0xdb	-37
62	0xed	-19
63	0x28	40
64	0x43	67
65	0x1e	30
66	0x03	3
67	0x03	3
68	0x1f	31
69	0x0d	13
70	0x0b	11
71	0x10	16
72	0x16	22
73	0x2b	43
74	0x09	9
75	0x3b	59
76	0x24	36
77	0x04	4
78	0x0a	10
79	0xc7	-57
80	0xe1	-31
81	0xf2	-14
82	0x17	23
83	0xf4	-12
84	0xf3	-13
85	0xdb	-37
86	0xf4	-12
87	0xf6	-10
88	0xdd	-35
89	0x01	1
90	0xf3	-13
91	0xf7	-9
92	0x44	68
93	0x04	4
94	0xdd	-35
95	0x50	80
96	0x00	0
97	0x09	9
98	0x26	38
99	0xf4	-12
100	0xbb	-69
101	0xca	-54
102	0x0f	15
103	0x70	112
104	0xeb	-21
105	0xfd	-3
106	0xff	-1
107	0x05	5
108	0x00	0
109	0xff	-1
110	0xfe	-2
111	0xfd	-3
112	0x6c	108
113	0x11	17
114	0xf8	-8
115	0xff	-1
116	0xf7	-9
117	0xf6	-10
118	0xc8	-56
119	0xff	-1
120	0xee	-18
121	0xf6	-10
122	0xef	-17
123	0xfc	-4
124	0xf0	-16
125	0xec	-20
126	0xfa	-6
127	0x02	2
128	0xfa	-6
129	0xef	-17
130	0x18	24
131	0xf5	-11
132	0xea	-22
133	0x83	-125
134	0xee	-18
135	0x0a	10
136	0xfb	-5
137	0x03	3
138	0x12	18
139	0x39	57
140	0x08	8
141	0x23	35
142	0xdb	-37
143	0x13	19
144	0xf8	-8
145	0xdb	-37
146	0xef	-17
147	0x1e	30
148	0xe7	-25
149	0xf2	-14
150	0x01	1
151	0xf1	-15
152	0xd4	-44
153	0xe0	-32
154	0xf2	-14
155	0x00	0
156	0xe4	-28
157	0xf5	-11
158	0x0c	12
159	0xe0	-32
160	0x04	4
161	0xfd	-3
162	0x03	3
163	0x0a	10
164	0x03	3
165	0xe5	-27
166	0xee	-18
167	0xef	-17
168	0xf8	-8
169	0xc5	-59
170	0xe2	-30
171	0x0d	13
172	0x01	1
173	0x17	23
174	0xf8	-8
175	0x18	24
176	0x18	24
177	0x2c	44
178	0x28	40
179	0x01	1
180	0xeb	-21
181	0xf7	-9
182	0xea	-22
183	0xf5	-11
184	0xd6	-42
185	0xe2	-30
186	0xf5	-11
187	0xef	-17
188	0xfd	-3
189	0x06	6
190	0xe8	-24
191	0xf7	-9
192	0xe1	-31
193	0x07	7
194	0x2a	42
195	0xe9	-23
196	0xed	-19
197	0x21	33
198	0x30	48
199	0xbe	-66
200	0xc7	-57
201	0x08	8
202	0xeb	-21
203	0x10	16
204	0x07	7
205	0xef	-17
206	0x05	5
207	0xbb	-69
208	0xcf	-49
209	0xe2	-30
210	0x04	4
211	0xf3	-13
212	0xec	-20
213	0x00	0
214	0xf7	-9
215	0xfc	-4
216	0xf5	-11
217	0xf3	-13
218	0x02	2
219	0xe5	-27
220	0x16	22
221	0xfb	-5
222	0xb5	-75
223	0xff	-1
224	0x19	25
225	0x05	5
226	0x0e	14
227	0x02	2
228	0x00	0
229	0xef	-17
230	0x09	9
231	0x25	37
232	0x44	68
233	0x31	49
234	0x08	8
235	0xf2	-14
236	0xff	-1
237	0xe8	-24
238	0x5e	94
239	0x33	51
240	0x00	0
241	0x2a	42
242	0x1e	30
243	0xf2	-14
244	0xd3	-45
245	0xf6	-10
246	0xe5	-27
247	0xf9	-7
248	0x07	7
249	0xcc	-52
250	0xf8	-8
251	0xf8	-8
252	0xf6	-10
253	0x32	50
254	0xf5	-11
255	0x05	5

model2.conv2.conv1.weight_quantized i1 [64, 64, 1, 1]
0	0x02	2
1	0xf7	-9
2	0xaa	-86
3	0xfb	-5
4	0x0e	14
5	0xe3	-29
6	0xde	-34
7	0xe3	-29
8	0x1b	27
9	0x41	65
10	0xed	-19
11	0x02	2
12	0xf2	-14
13	0x0f	15
14	0x01	1
15	0x03	3
16	0x01	1
17	0xca	-54
18	0x12	18
19	0xfd	-3
20	0xd5	-43
21	0xfc	-4
22	0xfa	-6
23	0x0b	11
24	0x01	1
25	0x15	21
26	0xed	-19
27	0x16	22
28	0x10	16
29	0xed	-19
30	0x11	17
31	0x01	1
32	0xcd	-51
33	0x11	17
34	0x15	21
35	0xf5	-11
36	0xe0	-32
37	0xea	-22
38	0xf2	-14
39	0x20	32
40	0xe9	-23
41	0xe6	-26
42	0xd3	-45
43	0x0a	10
44	0xe4	-28
45	0x3b	59
46	0x03	3
47	0x20	32
48	0x0a	10
49	0x18	24
50	0xd5	-43
51	0xf0	-16
52	0x2e	46
53	0x1a	26
54	0x04	4
55	0x0d	13
56	0xe9	-23
57	0x0d	13
58	0x01	1
59	0xe9	-23
60	0xf2	-14
61	0x27	39
62	0x03	3
63	0xf0	-16
64	0x38	56
65	0x1e	30
66	0x0b	11
67	0x2d	45
68	0x47	71
69	0xf8	-8
70	0xfb	-5
71	0xf5	-11
72	0xf0	-16
73	0xf5	-11
74	0x23	35
75	0xf4	-12
76	0x23	35
77	0xe9	-23
78	0xf8	-8
79	0xd0	-48
80	0x1e	30
81	0xf8	-8
82	0xdc	-36
83	0xe7	-25
84	0x15	21
85	0xf5	-11
86	0x2f	47
87	0x11	17
88	0xfb	-5
89	0x1f	31
90	0xfd	-3
91	0x16	22
92	0xf0	-16
93	0xf9	-7
94	0x09	9
95	0xf1	-15
96	0x0d	13
97	0xf4	-12
98	0xeb	-21
99	0x08	8
100	0xee	-18
101	0x24	36
102	0xe4	-28
103	0xfd	-3
104	0x0d	13
105	0xf6	-10
106	0xf5	-11
107	0xe2	-30
108	0x05	5
109	0xf2	-14
110	0xf8	-8
111	0x18	24
112	0x43	67
113	0x32	50
114	0x08	8
115	0xee	-18
116	0xf9	-7
117	0x3d	61
118	0x12	18
119	0xe3	-29
120	0x07	7
121	0x07	7
122	0x04	4
123	0xec	-20
124	0xfb	-5
125	0xfb	-5
126	0xf5	-11
127	0x10	16
128	0xe8	-24
129	0x07	7
130	0x08	8
131	0xf0	-16
132	0xf9	-7
133	0xe1	-31
134	0xf1	-15
135	0x01	1
136	0xee	-18
137	0x1b	27
138	0xfd	-3
139	0xf1	-15
140	0x00	0
141	0xe4	-28
142	0x45	69
143	0xee	-18
144	0xd7	-41
145	0xf9	-7
146	0x06	6
147	0xfd	-3
148	0xea	-22
149	0xfa	-6
150	0xe6	-26
151	0xed	-19
152	0x12	18
153	0xfa	-6
154	0x15	21
155	0xf5	-11
156	0x09	9
157	0x3c	60
158	0xf3	-13
159	0xca	-54
160	0xfb	-5
161	0x0c	12
162	0x10	16
163	0x03	3
164	0x11	17
165	0x05	5
166	0xd0	-48
167	0xed	-19
168	0xe9	-23
169	0x03	3
170	0xea	-22
171	0xf1	-15
172	0xfc	-4
173	0xff	-1
174	0x01	1
175	0x0c	12
176	0x25	37
177	0xf1	-15
178	0xfd	-3
179	0x07	7
180	0xfa	-6
181	0xf1	-15
182	0xf7	-9
183	0xf6	-10
184	0x1e	30
185	0x40	64
186	0x03	3
187	0xd1	-47
188	0x36	54
189	0xe8	-24
190	0xe2	-30
191	0xee	-18
192	0x0a	10
193	0xbf	-65
194	0x0c	12
195	0xee	-18
196	0x06	6
197	0xd5	-43
198	0x0d	13
199	0xbc	-68
200	0x01	1
201	0xfa	-6
202	0xf6	-10
203	0x28	40
204	0xe6	-26
205	0x23	35
206	0xdb	-37
207	0xe7	-25
208	0xe2	-30
209	0xe8	-24
210	0xd7	-41
211	0xf8	-8
212	0xd8	-40
213	0xdf	-33
214	0xf6	-10
215	0x01	1
216	0xf6	-10
217	0x10	16
218	0xdf	-33
219	0xf2	-14
220	0xf6	-10
221	0x10	16
222	0xe7	-25
223	0x0c	12
224	0x23	35
225	0x0d	13
226	0x08	8
227	0xf0	-16
228	0x03	3
229	0x00	0
230	0xee	-18
231	0x17	23
232	0xfa	-6
233	0x19	25
234	0xf6	-10
235	0xdc	-36
236	0xce	-50
237	0x13	19
238	0x0a	10
239	0xf9	-7
240	0x00	0
241	0xee	-18
242	0x29	41
243	0xe6	-26
244	0x1d	29
245	0xf9	-7
246	0xf1	-15
247	0xfb	-5
248	0xf1	-15
249	0x03	3
250	0xf8	-8
251	0x19	25
252	0x27	39
253	0xee	-18
254	0xfb	-5
255	0x0f	15

346_quantized i1 [64, 1, 3, 3]
0	0x22	34
1	0x22	34
2	0x0c	12
3	0x13	19
4	0x08	8
5	0x05	5
6	0x07	7
7	0x06	6
8	0x00	0
9	0xe5	-27
10	0xf5	-11
11	0xe7	-25
12	0xf6	-10
13	0xf0	-16
14	0xef	-17
15	0xf5	-11
16	0xfe	-2
17	0xf6	-10
18	0xff	-1
19	0xed	-19
20	0xf6	-10
21	0x0f	15
22	0x0e	14
23	0x08	8
24	0x26	38
25	0x40	64
26	0x32	50
27	0x0e	14
28	0x15	21
29	0x0e	14
30	0x0b	11
31	0x20	32
32	0x1c	28
33	0x09	9
34	0x1b	27
35	0x07	7
36	0x0a	10
37	0x06	6
38	0x05	5
39	0x0e	14
40	0x05	5
41	0x0a	10
42	0x13	19
43	0x0c	12
44	0x0c	12
45	0xfd	-3
46	0xe4	-28
47	0xe8	-24
48	0xfc	-4
49	0xe1	-31
50	0xed	-19
51	0xfb	-5
52	0xe5	-27
53	0xfa	-6
54	0xfb	-5
55	0xf6	-10
56	0xec	-20
57	0xfe	-2
58	0xe5	-27
59	0xed	-19
60	0xe9	-23
61	0xea	-22
62	0xee	-18
63	0xf0	-16
64	0xea	-22
65	0xf3	-13
66	0x0e	14
67	0x65	101
68	0x25	37
69	0xfa	-6
70	0x19	25
71	0x05	5
72	0x0d	13
73	0x10	16
74	0x13	19
75	0x13	19
76	0x25	37
77	0x0e	14
78	0x25	37
79	0x21	33
80	0x16	22
81	0xea	-22
82	0xfb	-5
83	0xf5	-11
84	0xd6	-42
85	0xec	-20
86	0xf5	-11
87	0xee	-18
88	0xda	-38
89	0xd9	-39
90	0x07	7
91	0x18	24
92	0xfd	-3
93	0x2c	44
94	0x38	56
95	0xea	-22
96	0xd0	-48
97	0xcb	-53
98	0xd2	-46
99	0xf6	-10
100	0xfd	-3
101	0x34	52
102	0xf0	-16
103	0x1b	27
104	0x27	39
105	0x0e	14
106	0x27	39
107	0x06	6
108	0xdb	-37
109	0xf4	-12
110	0x33	51
111	0xf7	-9
112	0xf7	-9
113	0x21	33
114	0xe4	-28
115	0x0c	12
116	0x1c	28
117	0x2f	47
118	0x1b	27
119	0x0e	14
120	0x16	22
121	0x07	7
122	0xf2	-14
123	0xfc	-4
124	0xe2	-30
125	0xe4	-28
126	0xfd	-3
127	0xfc	-4
128	0xf5	-11
129	0xff	-1
130	0xf3	-13
131	0xe0	-32
132	0xf6	-10
133	0xde	-34
134	0xf2	-14
135	0x0b	11
136	0xf2	-14
137	0x08	8
138	0x02	2
139	0xac	-84
140	0xe1	-31
141	0xfd	-3
142	0xf4	-12
143	0xf9	-7
144	0x12	18
145	0x0b	11
146	0x0f	15
147	0x11	17
148	0x19	25
149	0x0a	10
150	0x04	4
151	0x0b	11
152	0x11	17
153	0xdf	-33
154	0xf2	-14
155	0xff	-1
156	0xe5	-27
157	0xe1	-31
158	0xe9	-23
159	0x06	6
160	0x07	7
161	0xfd	-3
162	0x1b	27
163	0x3e	62
164	0x09	9
165	0xfe	-2
166	0x0f	15
167	0x04	4
168	0x03	3
169	0x09	9
170	0x00	0
171	0xf9	-7
172	0xfe	-2
173	0x0b	11
174	0x01	1
175	0x1e	30
176	0x15	21
177	0x1f	31
178	0x20	32
179	0x10	16
180	0xe2	-30
181	0xd7	-41
182	0xe4	-28
183	0xfe	-2
184	0xfc	-4
185	0xe0	-32
186	0xfb	-5
187	0x05	5
188	0xea	-22
189	0xd8	-40
190	0xcb	-53
191	0xee	-18
192	0xf1	-15
193	0xe1	-31
194	0xe5	-27
195	0xee	-18
196	0xde	-34
197	0xe5	-27
198	0xee	-18
199	0xe5	-27
200	0xe0	-32
201	0x09	9
202	0xf9	-7
203	0xec	-20
204	0x04	4
205	0xff	-1
206	0xfe	-2
207	0x02	2
208	0x14	20
209	0xf7	-9
210	0x33	51
211	0x43	67
212	0xfa	-6
213	0x08	8
214	0x0e	14
215	0xff	-1
216	0xe4	-28
217	0x0a	10
218	0x02	2
219	0xdc	-36
220	0xee	-18
221	0x08	8
222	0xfa	-6
223	0xcb	-53
224	0xe7	-25
225	0x11	17
226	0x01	1
227	0x00	0
228	0x1b	27
229	0x07	7
230	0x05	5
231	0x17	23
232	0x0b	11
233	0x08	8
234	0xca	-54
235	0xce	-50
236	0xf4	-12
237	0xe7	-25
238	0x03	3
239	0x21	33
240	0x03	3
241	0x12	18
242	0x13	19
243	0xfe	-2
244	0xee	-18
245	0xf0	-16
246	0xf2	-14
247	0xe4	-28
248	0xfb	-5
249	0x01	1
250	0xf3	-13
251	0xef	-17
252	0x06	6
253	0x0e	14
254	0x03	3
255	0xe0	-32

model3.conv1.conv1.weight_quantized i1 [64, 64, 1, 1]
0	0x15	21
1	0xcf	-49
2	0xf5	-11
3	0x15	21
4	0x19	25
5	0xf3	-13
6	0x0c	12
7	0x01	1
8	0xf3	-13
9	0xff	-1
10	0xea	-22
11	0x0d	13
12	0x04	4
13	0x0c	12
14	0xf5	-11
15	0x14	20
16	0xf3	-13
17	0xd3	-45
18	0x20	32
19	0x26	38
20	0xef	-17
21	0x0d	13
22	0xf6	-10
23	0x11	17
24	0xfa	-6
25	0xfe	-2
26	0x06	6
27	0x1a	26
28	0x07	7
29	0xf5	-11
30	0x0e	14
31	0xec	-20
32	0xf5	-11
33	0x08	8
34	0x21	33
35	0xf8	-8
36	0x05	5
37	0x06	6
38	0xf5	-11
39	0xf2	-14
40	0x17	23
41	0xfc	-4
42	0x13	19
43	0xec	-20
44	0x34	52
45	0xf8	-8
46	0x17	23
47	0x04	4
48	0xff	-1
49	0x17	23
50	0x33	51
51	0x0c	12
52	0x32	50
53	0x10	16
54	0xf1	-15
55	0x1f	31
56	0xdc	-36
57	0xea	-22
58	0xf4	-12
59	0xf9	-7
60	0x0d	13
61	0xfc	-4
62	0x1c	28
63	0xf4	-12
64	0xfa	-6
65	0xef	-17
66	0x10	16
67	0xfb	-5
68	0x28	40
69	0x07	7
70	0x03	3
71	0x0d	13
72	0x12	18
73	0x1a	26
74	0x1c	28
75	0x00	0
76	0x0b	11
77	0xf9	-7
78	0x22	34
79	0xf2	-14
80	0xec	-20
81	0x19	25
82	0xfe	-2
83	0xe6	-26
84	0x1f	31
85	0xe7	-25
86	0x21	33
87	0xf8	-8
88	0x35	53
89	0xdc	-36
90	0xe1	-31
91	0x19	25
92	0x23	35
93	0x0c	12
94	0xf6	-10
95	0x0b	11
96	0xf3	-13
97	0x06	6
98	0x02	2
99	0x0a	10
100	0xff	-1
101	0x0d	13
102	0x14	20
103	0x47	71
104	0xf7	-9
105	0x2d	45
106	0x15	21
107	0x0a	10
108	0xdb	-37
109	0xfa	-6
110	0xec	-20
111	0x00	0
112	0xec	-20
113	0xfa	-6
114	0x03	3
115	0xf4	-12
116	0x0d	13
117	0xf7	-9
118	0x1a	26
119	0xf2	-14
120	0x1b	27
121	0x18	24
122	0xf5	-11
123	0x1a	26
124	0xe1	-31
125	0x14	20
126	0xef	-17
127	0x13	19
128	0xfb	-5
129	0x0c	12
130	0x01	1
131	0x00	0
132	0x1e	30
133	0x1e	30
134	0xf7	-9
135	0xfc	-4
136	0x13	19
137	0xf8	-8
138	0xe3	-29
139	0xec	-20
140	0xe5	-27
141	0x04	4
142	0xd5	-43
143	0x19	25
144	0x2c	44
145	0xfe	-2
146	0xf0	-16
147	0xf2	-14
148	0x04	4
149	0x13	19
150	0xfd	-3
151	0xfb	-5
152	0x1a	26
153	0x28	40
154	0xf4	-12
155	0xea	-22
156	0xfa	-6
157	0xe9	-23
158	0x00	0
159	0xed	-19
160	0xfd	-3
161	0xce	-50
162	0xee	-18
163	0x10	16
164	0xfd	-3
165	0xfa	-6
166	0xfd	-3
167	0xf0	-16
168	0xff	-1
169	0xfb	-5
170	0x05	5
171	0xdc	-36
172	0xf0	-16
173	0xe0	-32
174	0xfe	-2
175	0x10	16
176	0x02	2
177	0x04	4
178	0xfd	-3
179	0x1c	28
180	0xe6	-26
181	0x1a	26
182	0x03	3
183	0x08	8
184	0xec	-20
185	0x10	16
186	0xf0	-16
187	0x12	18
188	0xef	-17
189	0x10	16
190	0xfb	-5
191	0x1a	26
192	0xf9	-7
193	0xef	-17
194	0x09	9
195	0x12	18
196	0x00	0
197	0x04	4
198	0x13	19
199	0x03	3
200	0xf1	-15
201	0x42	66
202	0xfc	-4
203	0xfb	-5
204	0xfb	-5
205	0x17	23
206	0x11	17
207	0xf9	-7
208	0x1b	27
209	0xf3	-13
210	0x03	3
211	0x1b	27
212	0x0b	11
213	0x0b	11
214	0x07	7
215	0x0a	10
216	0x14	20
217	0xdb	-37
218	0x09	9
219	0xfb	-5
220	0xf6	-10
221	0x00	0
222	0xe0	-32
223	0xf7	-9
224	0xfa	-6
225	0xd3	-45
226	0xd3	-45
227	0xf6	-10
228	0x1c	28
229	0x0b	11
230	0x13	19
231	0x10	16
232	0x4a	74
233	0x04	4
234	0x04	4
235	0xd8	-40
236	0xe3	-29
237	0x16	22
238	0x0e	14
239	0x2b	43
240	0x01	1
241	0x08	8
242	0xec	-20
243	0x01	1
244	0xe5	-27
245	0x1f	31
246	0xf1	-15
247	0x0a	10
248	0xff	-1
249	0xe6	-26
250	0xf6	-10
251	0xff	-1
252	0xe1	-31
253	0xe2	-30
254	0xf2	-14
255	0x08	8

349_quantized i1 [64, 1, 3, 3]
0	0x03	3
1	0x0a	10
2	0x02	2
3	0x08	8
4	0x28	40
5	0x0f	15
6	0xe7	-25
7	0xd3	-45
8	0xdb	-37
9	0xf6	-10
10	0x07	7
11	0xff	-1
12	0xf7	-9
13	0xf7	-9
14	0xff	-1
15	0xea	-22
16	0xf8	-8
17	0xec	-20
18	0xf7	-9
19	0x02	2
20	0xf6	-10
21	0x0b	11
22	0x09	9
23	0xd4	-44
24	0xf9	-7
25	0x05	5
26	0xde	-34
27	0x0b	11
28	0xf7	-9
29	0x1e	30
30	0x17	23
31	0x18	24
32	0x1a	26
33	0xfe	-2
34	0x1b	27
35	0x3c	60
36	0x01	1
37	0x63	99
38	0x1f	31
39	0x03	3
40	0xf7	-9
41	0x02	2
42	0x05	5
43	0xff	-1
44	0x02	2
45	0x0e	14
46	0x05	5
47	0xff	-1
48	0xf4	-12
49	0x50	80
50	0x21	33
51	0xfe	-2
52	0xbc	-68
53	0xe5	-27
54	0x0b	11
55	0x2f	47
56	0x20	32
57	0x03	3
58	0xf0	-16
59	0xf1	-15
60	0x05	5
61	0xf7	-9
62	0x02	2
63	0xdf	-33
64	0xfb	-5
65	0xda	-38
66	0x07	7
67	0x31	49
68	0x12	18
69	0x09	9
70	0x1c	28
71	0x0b	11
72	0xf4	-12
73	0xdd	-35
74	0x2b	43
75	0xf2	-14
76	0x0e	14
77	0x15	21
78	0xf0	-16
79	0x30	48
80	0xfd	-3
81	0xf4	-12
82	0x01	1
83	0xe7	-25
84	0xec	-20
85	0xfd	-3
86	0x08	8
87	0xf4	-12
88	0xe0	-32
89	0xee	-18
90	0xd8	-40
91	0xd4	-44
92	0xd8	-40
93	0xf4	-12
94	0x4c	76
95	0xfc	-4
96	0x0e	14
97	0xfb	-5
98	0x14	20
99	0x01	1
100	0x01	1
101	0x13	19
102	0x16	22
103	0x1c	28
104	0xfe	-2
105	0x27	39
106	0x44	68
107	0x10	16
108	0x09	9
109	0x10	16
110	0xf9	-7
111	0x07	7
112	0x24	36
113	0xe0	-32
114	0x07	7
115	0x17	23
116	0x16	22
117	0x08	8
118	0xff	-1
119	0x0a	10
120	0xf7	-9
121	0x5a	90
122	0x06	6
123	0x07	7
124	0xfe	-2
125	0x09	9
126	0xfe	-2
127	0x45	69
128	0x13	19
129	0xf8	-8
130	0xff	-1
131	0xf7	-9
132	0xf6	-10
133	0x00	0
134	0xf4	-12
135	0xf8	-8
136	0x1d	29
137	0x11	17
138	0xdf	-33
139	0xfa	-6
140	0xf3	-13
141	0xe5	-27
142	0x06	6
143	0xd2	-46
144	0xf8	-8
145	0x3a	58
146	0x0b	11
147	0xfa	-6
148	0x81	-127
149	0xed	-19
150	0x16	22
151	0x22	34
152	0x1b	27
153	0xf7	-9
154	0xf4	-12
155	0xf1	-15
156	0x08	8
157	0xd8	-40
158	0xf0	-16
159	0x22	34
160	0x21	33
161	0x21	33
162	0x16	22
163	0x2d	45
164	0x01	1
165	0x1b	27
166	0xe6	-26
167	0xf0	-16
168	0xfe	-2
169	0xf1	-15
170	0xf1	-15
171	0xff	-1
172	0xf1	-15
173	0xdf	-33
174	0xe6	-26
175	0xf2	-14
176	0xe4	-28
177	0xf5	-11
178	0xeb	-21
179	0xef	-17
180	0x00	0
181	0x1e	30
182	0xde	-34
183	0x0c	12
184	0xbf	-65
185	0xd9	-39
186	0x00	0
187	0xe3	-29
188	0x00	0
189	0x24	36
190	0x14	20
191	0x1b	27
192	0x1a	26
193	0xef	-17
194	0x03	3
195	0xbe	-66
196	0xfa	-6
197	0xe2	-30
198	0x20	32
199	0xc5	-59
200	0xe7	-25
201	0x11	17
202	0xfc	-4
203	0xf6	-10
204	0x17	23
205	0x1b	27
206	0xef	-17
207	0xc1	-63
208	0x31	49
209	0x3b	59
210	0xf6	-10
211	0x05	5
212	0xe9	-23
213	0x00	0
214	0xf3	-13
215	0xf5	-11
216	0xf1	-15
217	0xae	-82
218	0xe5	-27
219	0xed	-19
220	0x43	67
221	0xf5	-11
222	0xf6	-10
223	0xf7	-9
224	0xf3	-13
225	0xf1	-15
226	0xe1	-31
227	0xf6	-10
228	0xf0	-16
229	0xdb	-37
230	0x07	7
231	0xf7	-9
232	0x2a	42
233	0x2f	47
234	0xf2	-14
235	0xd2	-46
236	0x26	38
237	0xf3	-13
238	0xd7	-41
239	0x26	38
240	0xf2	-14
241	0x05	5
242	0x23	35
243	0x08	8
244	0x01	1
245	0x02	2
246	0x09	9
247	0x13	19
248	0x06	6
249	0x02	2
250	0x41	65
251	0x07	7
252	0x19	25
253	0x19	25
254	0xe2	-30
255	0xe8	-24

model3.conv2.conv1.weight_quantized i1 [64, 64, 1, 1]
0	0xed	-19
1	0xee	-18
2	0xf6	-10
3	0x0b	11
4	0xe2	-30
5	0x1d	29
6	0x0a	10
7	0x0e	14
8	0x09	9
9	0x15	21
10	0xf2	-14
11	0x15	21
12	0x36	54
13	0xed	-19
14	0xde	-34
15	0x17	23
16	0xff	-1
17	0x1d	29
18	0x16	22
19	0x12	18
20	0xe2	-30
21	0x15	21
22	0x09	9
23	0xf8	-8
24	0xe1	-31
25	0x14	20
26	0x13	19
27	0x0a	10
28	0x1a	26
29	0x01	1
30	0xf2	-14
31	0x1a	26
32	0x1b	27
33	0xdf	-33
34	0x14	20
35	0xfa	-6
36	0x16	22
37	0x05	5
38	0xf6	-10
39	0xf3	-13
40	0x07	7
41	0xd9	-39
42	0xe6	-26
43	0x13	19
44	0xd8	-40
45	0xe9	-23
46	0xf3	-13
47	0xfd	-3
48	0x35	53
49	0x0e	14
50	0x0f	15
51	0x2b	43
52	0x06	6
53	0x20	32
54	0xb8	-72
55	0xe9	-23
56	0x04	4
57	0x35	53
58	0x0c	12
59	0xf7	-9
60	0xd8	-40
61	0x13	19
62	0x28	40
63	0x23	35
64	0x19	25
65	0xf3	-13
66	0x05	5
67	0xf7	-9
68	0x1a	26
69	0xf7	-9
70	0xfd	-3
71	0xf3	-13
72	0xfc	-4
73	0x09	9
74	0x0c	12
75	0x00	0
76	0x06	6
77	0x21	33
78	0x06	6
79	0xf3	-13
80	0xe9	-23
81	0xd5	-43
82	0xe8	-24
83	0xf7	-9
84	0x0b	11
85	0xfd	-3
86	0xfa	-6
87	0x02	2
88	0x14	20
89	0x01	1
90	0x03	3
91	0xf2	-14
92	0x03	3
93	0x81	-127
94	0x14	20
95	0x08	8
96	0xf7	-9
97	0x06	6
98	0xe5	-27
99	0x1a	26
100	0xff	-1
101	0xe6	-26
102	0x03	3
103	0xc8	-56
104	0xc5	-59
105	0xfe	-2
106	0xf7	-9
107	0xfc	-4
108	0x04	4
109	0x12	18
110	0xf3	-13
111	0xf6	-10
112	0xfc	-4
113	0x12	18
114	0x00	0
115	0xf5	-11
116	0x01	1
117	0x09	9
118	0x0f	15
119	0x01	1
120	0xff	-1
121	0xfb	-5
122	0xed	-19
123	0xf6	-10
124	0x05	5
125	0x02	2
126	0xff	-1
127	0xfe	-2
128	0xe5	-27
129	0x0f	15
130	0xf0	-16
131	0xf7	-9
132	0xf2	-14
133	0xfc	-4
134	0xfb	-5
135	0x0c	12
136	0x09	9
137	0xee	-18
138	0x08	8
139	0xfa	-6
140	0xee	-18
141	0x34	52
142	0xf9	-7
143	0x0c	12
144	0x18	24
145	0x00	0
146	0x09	9
147	0xe7	-25
148	0x1c	28
149	0xee	-18
150	0x0a	10
151	0xf3	-13
152	0xf3	-13
153	0xfa	-6
154	0x17	23
155	0xf2	-14
156	0x12	18
157	0x00	0
158	0xbc	-68
159	0x0c	12
160	0x10	16
161	0x0c	12
162	0xfa	-6
163	0xe7	-25
164	0x02	2
165	0xfb	-5
166	0x12	18
167	0xda	-38
168	0xf6	-10
169	0xf6	-10
170	0xf3	-13
171	0x05	5
172	0xe1	-31
173	0xf0	-16
174	0x04	4
175	0x38	56
176	0xeb	-21
177	0xf2	-14
178	0xfc	-4
179	0xe1	-31
180	0xe6	-26
181	0xe9	-23
182	0x05	5
183	0x2d	45
184	0xfe	-2
185	0x0e	14
186	0xf3	-13
187	0xff	-1
188	0x1b	27
189	0x05	5
190	0xfc	-4
191	0x03	3
192	0x2b	43
193	0x0d	13
194	0xdb	-37
195	0xf7	-9
196	0x10	16
197	0xf7	-9
198	0x02	2
199	0x27	39
200	0xd1	-47
201	0xef	-17
202	0xea	-22
203	0xfd	-3
204	0x08	8
205	0xde	-34
206	0xfd	-3
207	0xfe	-2
208	0xf3	-13
209	0x1e	30
210	0x04	4
211	0x22	34
212	0x20	32
213	0x2b	43
214	0x40	64
215	0x0f	15
216	0x06	6
217	0xf3	-13
218	0x10	16
219	0x0b	11
220	0x2f	47
221	0x26	38
222	0xef	-17
223	0xdb	-37
224	0x10	16
225	0xde	-34
226	0x28	40
227	0xeb	-21
228	0x32	50
229	0xf2	-14
230	0x0e	14
231	0xf4	-12
232	0xff	-1
233	0xa4	-92
234	0x10	16
235	0xf5	-11
236	0xed	-19
237	0x0c	12
238	0xe7	-25
239	0x03	3
240	0x02	2
241	0x17	23
242	0x06	6
243	0xfa	-6
244	0x2d	45
245	0x09	9
246	0x13	19
247	0x0f	15
248	0x17	23
249	0x19	25
250	0xe8	-24
251	0x2c	44
252	0xfe	-2
253	0x08	8
254	0xdf	-33
255	0x0a	10

352_quantized i1 [64, 1, 3, 3]
0	0xff	-1
1	0xe4	-28
2	0xfa	-6
3	0x0f	15
4	0xa5	-91
5	0xf8	-8
6	0x08	8
7	0xe5	-27
8	0x07	7
9	0xff	-1
10	0xed	-19
11	0x02	2
12	0x01	1
13	0x56	86
14	0x02	2
15	0xff	-1
16	0x04	4
17	0x01	1
18	0x08	8
19	0x06	6
20	0x18	24
21	0x02	2
22	0xab	-85
23	0x39	57
24	0xff	-1
25	0x1e	30
26	0x16	22
27	0xf9	-7
28	0xf7	-9
29	0xea	-22
30	0xe2	-30
31	0xdd	-35
32	0xe3	-29
33	0xe5	-27
34	0xe1	-31
35	0xe8	-24
36	0xf7	-9
37	0x25	37
38	0x27	39
39	0x0e	14
40	0x3f	63
41	0x9b	-101
42	0x25	37
43	0x03	3
44	0xb9	-71
45	0x2d	45
46	0x1f	31
47	0x1a	26
48	0x1e	30
49	0x2a	42
50	0x18	24
51	0x1a	26
52	0x1c	28
53	0xf9	-7
54	0x19	25
55	0x20	32
56	0x14	20
57	0x0c	12
58	0x22	34
59	0x0c	12
60	0x0a	10
61	0x25	37
62	0x23	35
63	0xe6	-26
64	0x2f	47
65	0x01	1
66	0xe0	-32
67	0x5e	94
68	0x0a	10
69	0xec	-20
70	0x04	4
71	0x10	16
72	0x15	21
73	0x0f	15
74	0x10	16
75	0x17	23
76	0x1a	26
77	0x0f	15
78	0x14	20
79	0x12	18
80	0x15	21
81	0xd1	-47
82	0x15	21
83	0x09	9
84	0xb3	-77
85	0x55	85
86	0x09	9
87	0xe9	-23
88	0x06	6
89	0x14	20
90	0xef	-17
91	0x10	16
92	0xf0	-16
93	0xf9	-7
94	0xa9	-87
95	0xf8	-8
96	0x1f	31
97	0x42	66
98	0x19	25
99	0xfc	-4
100	0x4c	76
101	0x29	41
102	0x04	4
103	0xe2	-30
104	0x55	85
105	0xf2	-14
106	0xf5	-11
107	0x17	23
108	0xf0	-16
109	0xf2	-14
110	0xf7	-9
111	0xeb	-21
112	0xf6	-10
113	0xee	-18
114	0xe9	-23
115	0xe3	-29
116	0xe8	-24
117	0xb7	-73
118	0xef	-17
119	0x35	53
120	0xe4	-28
121	0xec	-20
122	0x3b	59
123	0xc7	-57
124	0x05	5
125	0x09	9
126	0x0b	11
127	0x11	17
128	0x2c	44
129	0x04	4
130	0x00	0
131	0x32	50
132	0x13	19
133	0x0f	15
134	0x29	41
135	0x1c	28
136	0xe0	-32
137	0xaf	-81
138	0x2e	46
139	0x32	50
140	0xcf	-49
141	0x30	48
142	0x20	32
143	0xbc	-68
144	0xde	-34
145	0xe1	-31
146	0xd3	-45
147	0xf6	-10
148	0xf4	-12
149	0xe7	-25
150	0xf3	-13
151	0xf3	-13
152	0xec	-20
153	0xfc	-4
154	0xe9	-23
155	0xf8	-8
156	0x03	3
157	0xc0	-64
158	0xfb	-5
159	0xfe	-2
160	0xf3	-13
161	0x00	0
162	0x17	23
163	0x30	48
164	0x08	8
165	0xf6	-10
166	0x65	101
167	0x1d	29
168	0x15	21
169	0x1d	29
170	0x25	37
171	0xf2	-14
172	0xe8	-24
173	0xf1	-15
174	0xf0	-16
175	0xef	-17
176	0xf0	-16
177	0xf8	-8
178	0xf3	-13
179	0x04	4
180	0x0a	10
181	0x1f	31
182	0x1c	28
183	0x03	3
184	0x71	113
185	0x44	68
186	0x08	8
187	0x16	22
188	0x09	9
189	0xf1	-15
190	0x0a	10
191	0xe6	-26
192	0xe6	-26
193	0xcd	-51
194	0xeb	-21
195	0xe4	-28
196	0xf8	-8
197	0xf3	-13
198	0x11	17
199	0x1c	28
200	0x22	34
201	0x10	16
202	0x1c	28
203	0x22	34
204	0xfd	-3
205	0x02	2
206	0x08	8
207	0x1e	30
208	0x35	53
209	0x16	22
210	0x28	40
211	0x45	69
212	0x27	39
213	0x16	22
214	0x1c	28
215	0x15	21
216	0xf2	-14
217	0x07	7
218	0xcf	-49
219	0xfd	-3
220	0x1e	30
221	0xc8	-56
222	0x00	0
223	0x01	1
224	0xc7	-57
225	0xe2	-30
226	0xb7	-73
227	0xe8	-24
228	0xf8	-8
229	0xe5	-27
230	0xfb	-5
231	0xf5	-11
232	0x02	2
233	0xf5	-11
234	0xfa	-6
235	0xf0	-16
236	0x02	2
237	0xe6	-26
238	0xea	-22
239	0x04	4
240	0xe4	-28
241	0xd9	-39
242	0xdf	-33
243	0xff	-1
244	0x25	37
245	0x00	0
246	0xef	-17
247	0x01	1
248	0xfc	-4
249	0xe2	-30
250	0xba	-70
251	0xcc	-52
252	0x05	5
253	0x00	0
254	0x07	7
255	0x06	6

model4.conv1.conv1.weight_quantized i1 [64, 64, 1, 1]
0	0xe4	-28
1	0x06	6
2	0x04	4
3	0x09	9
4	0xf9	-7
5	0xbf	-65
6	0x3d	61
7	0xf7	-9
8	0xe1	-31
9	0xe4	-28
10	0x10	16
11	0x06	6
12	0x1f	31
13	0xe7	-25
14	0xcf	-49
15	0x0b	11
16	0x09	9
17	0xf1	-15
18	0x1a	26
19	0xbb	-69
20	0xf1	-15
21	0xda	-38
22	0x00	0
23	0xec	-20
24	0xea	-22
25	0x27	39
26	0xde	-34
27	0x16	22
28	0xff	-1
29	0xf4	-12
30	0x41	65
31	0xe8	-24
32	0xc6	-58
33	0x07	7
34	0x08	8
35	0x03	3
36	0xf3	-13
37	0xce	-50
38	0x11	17
39	0x27	39
40	0xcd	-51
41	0x0b	11
42	0x03	3
43	0x03	3
44	0x15	21
45	0x07	7
46	0xe5	-27
47	0x02	2
48	0x0a	10
49	0xef	-17
50	0x21	33
51	0xf6	-10
52	0x0d	13
53	0x1b	27
54	0x03	3
55	0xf2	-14
56	0x10	16
57	0xcd	-51
58	0x2a	42
59	0x20	32
60	0xc4	-60
61	0xf3	-13
62	0x0e	14
63	0x02	2
64	0x06	6
65	0xf7	-9
66	0xf3	-13
67	0x0c	12
68	0xfe	-2
69	0xe6	-26
70	0xef	-17
71	0x07	7
72	0x2f	47
73	0xf3	-13
74	0xf6	-10
75	0x33	51
76	0x11	17
77	0x16	22
78	0x0c	12
79	0xfc	-4
80	0x00	0
81	0x02	2
82	0xfb	-5
83	0x08	8
84	0xe5	-27
85	0x14	20
86	0x9b	-101
87	0x01	1
88	0x00	0
89	0x00	0
90	0xfe	-2
91	0xf3	-13
92	0xf7	-9
93	0xfe	-2
94	0x1d	29
95	0xdf	-33
96	0xfa	-6
97	0x17	23
98	0x1a	26
99	0xfd	-3
100	0xf4	-12
101	0xd5	-43
102	0x17	23
103	0xef	-17
104	0xf9	-7
105	0x19	25
106	0xfa	-6
107	0x13	19
108	0x0e	14
109	0xff	-1
110	0xff	-1
111	0xee	-18
112	0x24	36
113	0xed	-19
114	0xe9	-23
115	0xff	-1
116	0x57	87
117	0xfa	-6
118	0x07	7
119	0x0e	14
120	0xbd	-67
121	0xf6	-10
122	0x14	20
123	0x2f	47
124	0x18	24
125	0x00	0
126	0xff	-1
127	0xe6	-26
128	0xf8	-8
129	0xf7	-9
130	0x05	5
131	0xeb	-21
132	0xf6	-10
133	0xef	-17
134	0xd5	-43
135	0xf2	-14
136	0xf4	-12
137	0x2a	42
138	0xfb	-5
139	0x29	41
140	0xdb	-37
141	0x60	96
142	0xfa	-6
143	0xf9	-7
144	0xca	-54
145	0xfd	-3
146	0x01	1
147	0xcd	-51
148	0x04	4
149	0x1d	29
150	0x17	23
151	0xe7	-25
152	0xd0	-48
153	0xf0	-16
154	0x2d	45
155	0xfe	-2
156	0x15	21
157	0xe9	-23
158	0x07	7
159	0xfb	-5
160	0xfa	-6
161	0x0f	15
162	0xf8	-8
163	0x06	6
164	0xcd	-51
165	0xff	-1
166	0xe1	-31
167	0xe6	-26
168	0x00	0
169	0xd3	-45
170	0xf0	-16
171	0xfb	-5
172	0x0d	13
173	0x19	25
174	0x74	116
175	0x04	4
176	0xd9	-39
177	0x01	1
178	0xf5	-11
179	0xc5	-59
180	0x02	2
181	0x09	9
182	0xf3	-13
183	0xf9	-7
184	0x04	4
185	0x01	1
186	0x06	6
187	0x11	17
188	0xff	-1
189	0xe2	-30
190	0x1f	31
191	0x1a	26
192	0xf3	-13
193	0x1a	26
194	0x16	22
195	0x28	40
196	0x09	9
197	0x2d	45
198	0x2f	47
199	0xfb	-5
200	0x20	32
201	0xfe	-2
202	0x06	6
203	0x1b	27
204	0x50	80
205	0xfd	-3
206	0xf8	-8
207	0x09	9
208	0x18	24
209	0xf9	-7
210	0x0e	14
211	0xdf	-33
212	0xcc	-52
213	0xe5	-27
214	0xf8	-8
215	0x46	70
216	0x35	53
217	0x1a	26
218	0xf7	-9
219	0xd7	-41
220	0xb7	-73
221	0xeb	-21
222	0xef	-17
223	0x1a	26
224	0xd1	-47
225	0x19	25
226	0x12	18
227	0xf6	-10
228	0x1c	28
229	0xd1	-47
230	0xea	-22
231	0x09	9
232	0xf3	-13
233	0xf4	-12
234	0xee	-18
235	0x1a	26
236	0x01	1
237	0xd7	-41
238	0xed	-19
239	0x0d	13
240	0x5a	90
241	0xfc	-4
242	0xdc	-36
243	0xe0	-32
244	0xf2	-14
245	0xda	-38
246	0x01	1
247	0xed	-19
248	0x15	21
249	0x22	34
250	0x0f	15
251	0xb6	-74
252	0x53	83
253	0x20	32
254	0xcf	-49
255	0xd1	-47

355_quantized i1 [64, 1, 3, 3]
0	0x1b	27
1	0xed	-19
2	0xf4	-12
3	0x44	68
4	0xc9	-55
5	0xe6	-26
6	0x27	39
7	0x09	9
8	0xe1	-31
9	0xf9	-7
10	0x05	5
11	0xfa	-6
12	0x0c	12
13	0x25	37
14	0x08	8
15	0x0f	15
16	0x81	-127
17	0xf9	-7
18	0x13	19
19	0x31	49
20	0x0e	14
21	0x21	33
22	0xed	-19
23	0xf5	-11
24	0x16	22
25	0xfe	-2
26	0xf8	-8
27	0xf4	-12
28	0xf8	-8
29	0xee	-18
30	0xdc	-36
31	0x12	18
32	0xe6	-26
33	0xf0	-16
34	0xcf	-49
35	0xea	-22
36	0xe9	-23
37	0xc8	-56
38	0x07	7
39	0xd6	-42
40	0x18	24
41	0x0f	15
42	0x18	24
43	0x13	19
44	0x12	18
45	0xe3	-29
46	0xd6	-42
47	0xda	-38
48	0xf1	-15
49	0xff	-1
50	0xfb	-5
51	0x20	32
52	0x2f	47
53	0x19	25
54	0xf4	-12
55	0xbe	-66
56	0xe5	-27
57	0xec	-20
58	0x15	21
59	0xf1	-15
60	0x00	0
61	0xf8	-8
62	0x04	4
63	0xfa	-6
64	0x01	1
65	0x11	17
66	0xea	-22
67	0x45	69
68	0xff	-1
69	0x0b	11
70	0x11	17
71	0x04	4
72	0xff	-1
73	0xeb	-21
74	0x0f	15
75	0xf9	-7
76	0xb2	-78
77	0x13	19
78	0x0d	13
79	0x0b	11
80	0x16	22
81	0xe3	-29
82	0xf2	-14
83	0xeb	-21
84	0xd4	-44
85	0xbe	-66
86	0xe7	-25
87	0xf3	-13
88	0xf9	-7
89	0xfa	-6
90	0xe5	-27
91	0xc5	-59
92	0xf9	-7
93	0xea	-22
94	0x1b	27
95	0xf3	-13
96	0xfb	-5
97	0x04	4
98	0x00	0
99	0xfb	-5
100	0xd9	-39
101	0xe2	-30
102	0x25	37
103	0xd1	-47
104	0x02	2
105	0x1d	29
106	0xe9	-23
107	0xed	-19
108	0x11	17
109	0x12	18
110	0x16	22
111	0x07	7
112	0x0c	12
113	0x0e	14
114	0x0c	12
115	0x20	32
116	0x14	20
117	0xdf	-33
118	0xd3	-45
119	0x00	0
120	0xd7	-41
121	0xf2	-14
122	0xfb	-5
123	0xfe	-2
124	0x0e	14
125	0x00	0
126	0xd6	-42
127	0x04	4
128	0x11	17
129	0xdf	-33
130	0x12	18
131	0x09	9
132	0xf6	-10
133	0x11	17
134	0x07	7
135	0xff	-1
136	0x22	34
137	0x17	23
138	0x0e	14
139	0x06	6
140	0x0d	13
141	0x15	21
142	0x1d	29
143	0x17	23
144	0xfd	-3
145	0x05	5
146	0xf0	-16
147	0xf7	-9
148	0xe3	-29
149	0xeb	-21
150	0xd9	-39
151	0xf4	-12
152	0x14	20
153	0xfa	-6
154	0xe0	-32
155	0xff	-1
156	0xfa	-6
157	0xe0	-32
158	0xec	-20
159	0x19	25
160	0x31	49
161	0x19	25
162	0x0e	14
163	0x5d	93
164	0x17	23
165	0x02	2
166	0x07	7
167	0x08	8
168	0xfd	-3
169	0xfe	-2
170	0x01	1
171	0xfd	-3
172	0xf7	-9
173	0xfc	-4
174	0x02	2
175	0xac	-84
176	0x19	25
177	0x1b	27
178	0x33	51
179	0x20	32
180	0x01	1
181	0xf1	-15
182	0x14	20
183	0x06	6
184	0xc7	-57
185	0x24	36
186	0xf4	-12
187	0x13	19
188	0x1d	29
189	0xec	-20
190	0xd9	-39
191	0xea	-22
192	0xfb	-5
193	0xf3	-13
194	0xe6	-26
195	0xeb	-21
196	0xed	-19
197	0xe3	-29
198	0x01	1
199	0x00	0
200	0x01	1
201	0xf3	-13
202	0xca	-54
203	0xfc	-4
204	0x19	25
205	0x37	55
206	0x13	19
207	0x19	25
208	0x1d	29
209	0x0d	13
210	0x15	21
211	0x36	54
212	0xf6	-10
213	0x1d	29
214	0x35	53
215	0x11	17
216	0xec	-20
217	0xe4	-28
218	0x17	23
219	0xe0	-32
220	0xf0	-16
221	0x1a	26
222	0xfe	-2
223	0xcd	-51
224	0x13	19
225	0x12	18
226	0xfb	-5
227	0xbc	-68
228	0x19	25
229	0x37	55
230	0xf1	-15
231	0x20	32
232	0x1e	30
233	0xf8	-8
234	0x0b	11
235	0x0e	14
236	0x07	7
237	0x19	25
238	0x04	4
239	0x02	2
240	0x0a	10
241	0x2d	45
242	0x03	3
243	0x20	32
244	0x13	19
245	0x26	38
246	0xfd	-3
247	0xb8	-72
248	0xff	-1
249	0x01	1
250	0x02	2
251	0xf6	-10
252	0x34	52
253	0xfa	-6
254	0xdd	-35
255	0x26	38
